tools/TIGON/Output/dyn-BF_all_1/ckpt.pth (torch, 39841 bytes, 51 tensors)

hyper_net1.net.0.0.weight f4 [16, 8]
0	0x3e9b89da	0.3037861
1	0xbec8d6d0	-0.3922639
2	0xbe502f8d	-0.20330639
3	0x3d9294ca	0.071572855
4	0x3d0b45cf	0.03400212
5	0xbbf1bddd	-0.00737737
6	0xbd0b6d5b	-0.034039836
7	0x3ea4ad3e	0.32163423
8	0xbe47f95d	-0.19528718
9	0x3ee00129	0.43750885
10	0x3d25fd4b	0.040524762
11	0x3e3b5fc1	0.18298246
12	0xbb1d3b62	-0.0023991694
13	0xbc929989	-0.017895477
14	0x3e14cd40	0.14531422
15	0xbbbe0b73	-0.0057997047
16	0x3e91c27b	0.2846869
17	0x3e089712	0.13338879
18	0xbe8dd585	-0.27701965
19	0x3e87b2e8	0.26503682
20	0xbe16d94d	-0.14731331
21	0x3d910a3d	0.07082031
22	0xb6ab28c0	-5.100941e-06
23	0x3e05ea99	0.13077773
24	0xbd04b7ca	-0.032401837
25	0x3def67ed	0.11689744
26	0xbde564b6	-0.1120085
27	0x3e567e1c	0.20946544
28	0x3d78315c	0.060593948
29	0xbe4d1482	-0.20027354
30	0x3e4c4ed8	0.19951952
31	0xbeb214cc	-0.34781492
32	0xbdc1f793	-0.09471049
33	0x3e59597b	0.2122554
34	0x3ea96741	0.3308659
35	0x3d147713	0.03624637
36	0xbd580f29	-0.052748833
37	0x3bf5c25d	0.0074999765
38	0xbd667648	-0.056265146
39	0x3e6341b6	0.22193035
40	0x3b56c5a9	0.0032771623
41	0x3cc31637	0.023814304
42	0xbea7b85f	-0.3275785
43	0x3e70af36	0.23504338
44	0x3e540d54	0.2070821
45	0xbda71f0a	-0.08160217
46	0x3d4d3287	0.050097015
47	0xbe3c3f6d	-0.1838357
48	0xbdd8c29d	-0.105839945
49	0x3ee0eff4	0.4393307
50	0xbed59c27	-0.41720697
51	0xbc8c28bf	-0.017109273
52	0x3d4d1f0f	0.050078448
53	0x3d9d405e	0.07678293
54	0xbd0f8179	-0.035035584
55	0xbe76858c	-0.24074382
56	0x3d830706	0.06397824
57	0xbee08ad4	-0.43855917
58	0x3d5d5b0e	0.054041915
59	0xbe5668d5	-0.20938428
60	0xbc9882f0	-0.018617123
61	0x3e3a650b	0.18202607
62	0xbe26b870	-0.16281295
63	0xbe7c4e8f	-0.24639343
64	0xbeb712ad	-0.35756436
65	0x3e8df480	0.277256
66	0x3ebf0a51	0.37312558
67	0xbe6068c2	-0.21914962
68	0x3dabe5c1	0.083934315
69	0x3dd24233	0.10266533
70	0xbe595c71	-0.2122667
71	0x3e108f31	0.14117123
72	0x3e47b298	0.19501722
73	0xbd7e52e6	-0.062090777
74	0x3ea2933b	0.31752953
75	0xbdc548f9	-0.09633059
76	0x3c83783b	0.016048541
77	0x3dab28fe	0.08357428
78	0xbe4d727a	-0.200632
79	0xbed1efb9	-0.41003206
80	0x3dc96894	0.098344
81	0x3d785006	0.06062319
82	0x3d7a5752	0.06111843
83	0xbe6f5d43	-0.2337542
84	0x3e2530d9	0.16131915
85	0xbdb3e559	-0.08783979
86	0xbd417394	-0.047229365
87	0xbec06948	-0.37580323
88	0xbeddd46a	-0.43326122
89	0x3dcbe16b	0.099551044
90	0xbe4240a9	-0.18969978
91	0x3e50632b	0.2035033
92	0x3e85197b	0.25996003
93	0x3cd64ee8	0.026160672
94	0x3e695f4a	0.22790256
95	0xbe9e5aeb	-0.3092874
96	0x3e7bbe4d	0.24584313
97	0x3e846e9d	0.2586564
98	0xbe08ce4a	-0.13359943
99	0xbd853acf	-0.065053575
100	0xbd7c8773	-0.061652612
101	0xbbc6e773	-0.0060700714
102	0xbe4d4338	-0.20045173
103	0xbe7bd9ef	-0.24594854
104	0xbe903eb7	-0.28172848
105	0xbdca6ec8	-0.09884411
106	0x3db330eb	0.08749565
107	0xbe5a57a7	-0.21322499
108	0xbd58ce6c	-0.052931234
109	0x3da7acd0	0.08187258
110	0xbc1275d2	-0.008939223
111	0x3d24d5e9	0.040243063
112	0xbe5c27f5	-0.21499617
113	0xbe26af87	-0.16277896
114	0xbeeaeb94	-0.45882857
115	0x3eaeba5e	0.34126562
116	0x3ce8c564	0.028414436
117	0x3dac307a	0.08407684
118	0x3dc0ddb5	0.09417287
119	0x3ec669be	0.3875255
120	0xbeaba245	-0.3352224
121	0x3db66e13	0.08907714
122	0xbecc0837	-0.39850017
123	0x3e45495c	0.19266266
124	0xbdad1d9e	-0.08452915
125	0x3c8e9b91	0.017408164
126	0xbe0fdcfc	-0.14049143
127	0x3e57e854	0.2108472

hyper_net1.net.0.0.bias f4 [16]
0	0x3e110775	0.14163001
1	0x3ea07a98	0.31343532
2	0xbe6c5f11	-0.2308314
3	0x3dbd57d3	0.09245267
4	0x3e9e7b63	0.30953512
5	0x3e437f61	0.1909156
6	0x3e6dba1c	0.23215526
7	0x3e551385	0.20808227
8	0x3e5666a0	0.20937586
9	0x3dde8a0b	0.10866173
10	0xbe641a5d	-0.22275682
11	0xbe96ecf8	-0.29477668
12	0xbded82c5	-0.11597208
13	0xbda39eab	-0.07989248
14	0xbe66a073	-0.22522144
15	0x3d996b2e	0.07491146

hyper_net1.net.1.0.weight f4 [16, 16]
0	0x3e741c06	0.23838815
1	0x3e7bf8f2	0.24606684
2	0xbe7d3410	-0.24726892
3	0x3e71e58a	0.23622718
4	0xbe7d2f01	-0.24724962
5	0xbea9cd0e	-0.33164257
6	0x3e2767cd	0.1634819
7	0x3d61ece2	0.05515755
8	0xbe03baf7	-0.1286429
9	0xbe6e030a	-0.23243347
10	0x3db2bc56	0.087273285
11	0xbe438f5c	-0.19097656
12	0xbe92eb6a	-0.28695232
13	0xbd97809d	-0.07397578
14	0xbeb1b9c2	-0.34712034
15	0x3e220bfd	0.15824886
16	0xbe3f9117	-0.18707691
17	0xbdfec80a	-0.12440498
18	0xbe8067da	-0.25079232
19	0xbd943a07	-0.0723763
20	0xbde7499f	-0.11293339
21	0x3e2dca80	0.16971779
22	0xbda72e1e	-0.08163093
23	0x3e723b0f	0.23655342
24	0x3eb39981	0.35078052
25	0x3caefa1f	0.021359501
26	0xbe21e55a	-0.15810147
27	0xbea9d0ec	-0.33167207
28	0xbe87694f	-0.26447532
29	0xbddd03d4	-0.10791746
30	0xbe4a4b08	-0.19755185
31	0x3e63029e	0.22168967
32	0xbde36e30	-0.11105001
33	0xbd216264	-0.039400473
34	0xbc88fe33	-0.016722774
35	0xbe9518df	-0.29120538
36	0x3e9d4a84	0.30720913
37	0xbde5273d	-0.11189125
38	0xbe4b97eb	-0.19882171
39	0x3cdb6e35	0.02678595
40	0xbeb8d4a8	-0.36099744
41	0x3dbcf961	0.09227253
42	0xbe55ece7	-0.20891152
43	0xbd922865	-0.07136611
44	0xbd3e40f1	-0.04644865
45	0x3e7ae1fb	0.24500267
46	0x3e86fc00	0.26364136
47	0x3e8215c2	0.25407225
48	0x3d00026c	0.03125231
49	0x3e7e2097	0.2481712
50	0xbe32dc1f	-0.17466782
51	0xbe3f44bc	-0.18678564
52	0x3e5b1d4a	0.21397892
53	0x3d9c7b43	0.07640698
54	0x3c210e81	0.009830118
55	0x3e5a54be	0.21321389
56	0x3e7ad1eb	0.2449414
57	0x3e03146b	0.12800758
58	0xbe041833	-0.12899856
59	0xbe03a5c2	-0.128562
60	0x3d59efb3	0.05320711
61	0x3e896232	0.2683273
62	0xbd4f6aad	-0.050638843
63	0xbdde5fdb	-0.10858127
64	0x3e75c3b2	0.24000433
65	0x3e8b2b8f	0.2718167
66	0x3b8826cd	0.004155016
67	0xbe1deac0	-0.15421581
68	0xbed14b1e	-0.40877622
69	0xbd0df7ea	-0.034660257
70	0x3c855e09	0.016280191
71	0xbe99a739	-0.30010393
72	0xbe974d94	-0.29551375
73	0xbeb9da9f	-0.36299607
74	0x3e9eb1b2	0.30994946
75	0x3ebc8081	0.3681679
76	0x3eb0ead8	0.34554172
77	0x3eb3b522	0.3509913
78	0xbd71b927	-0.059014466
79	0x3dba1716	0.090864345
80	0x3e0faadf	0.14030026
81	0xbdd2d5ef	-0.10294711
82	0xbdad0611	-0.08448423
83	0x3ea793f8	0.3273008
84	0xbd4a206b	-0.049347322
85	0x3e0b0498	0.13575971
86	0xbdbcddb3	-0.09221973
87	0xbe3c7c90	-0.18406892
88	0xbdb8fa6d	-0.0903214
89	0x3d773424	0.06035246
90	0x3e67ee77	0.22649561
91	0x3e905279	0.28187922
92	0xbce09421	-0.027414383
93	0x3e9ce9b5	0.30647054
94	0xbe22c130	-0.15894008
95	0xbc5d613f	-0.013511955
96	0xbe6f88c5	-0.23392017
97	0x3d345264	0.044023886
98	0x3e503ff6	0.20336899
99	0xbe6a7fbd	-0.22900291
100	0x3d8a900d	0.06765757
101	0xbe771876	-0.24130425
102	0xbdc74da9	-0.097316094
103	0xbe25617c	-0.16150469
104	0xbcf4be1b	-0.029875806
105	0xbe2180c3	-0.15771775
106	0x3de00f83	0.109404586
107	0xbea360a8	-0.3190968
108	0x3d75762c	0.05992715
109	0xbdf6cd52	-0.120508805
110	0xbe26e22a	-0.16297212
111	0x3e2c8ab8	0.16849792
112	0xbc3377a0	-0.010953814
113	0xbe857884	-0.2606851
114	0xbdd98dfa	-0.10622783
115	0xbdfe11a4	-0.124057084
116	0xbe7ed902	-0.2488747
117	0x3d9aad32	0.07552566
118	0x3d665284	0.056231037
119	0x3ea5901a	0.32336503
120	0xbc57762b	-0.013150732
121	0xbe0e6d87	-0.13908969
122	0x3ead3c4e	0.3383507
123	0x3e039150	0.12848401
124	0xbd2e406e	-0.042541914
125	0x3e644aae	0.22294113
126	0x3e9854a4	0.29752076
127	0xbe3b9438	-0.1831826
128	0xbe837f04	-0.25682843
129	0xbe81fcaa	-0.2538808
130	0xbe878024	-0.2646495
131	0xbe11d733	-0.14242248
132	0x3e2c7594	0.16841727
133	0xbead83ba	-0.33889562
134	0xbe86d9d7	-0.26338074
135	0xbeb54595	-0.3540465
136	0xbe4534ed	-0.19258471
137	0x3e386485	0.18007095
138	0x3eb04ffe	0.3443603
139	0x3ec4ec06	0.38461322
140	0xbbcc762a	-0.006239672
141	0xbea53310	-0.3226552
142	0x3ebaeb0e	0.36507457
143	0xbe30f47e	-0.17280766
144	0x3d6aa076	0.057281934
145	0x3e0f24ef	0.13978933
146	0x3d300b67	0.042979624
147	0x3d8fadb5	0.07015554
148	0xbecd6dd1	-0.40122846
149	0xbe0ad752	-0.135587
150	0xbe70f4e5	-0.2353092
151	0x3e918b42	0.28426558
152	0xbe73d04f	-0.23809932
153	0x3c72c5c7	0.014817662
154	0x3eba946d	0.36441365
155	0x3e9d0e14	0.30674803
156	0xbe1c6e14	-0.15276366
157	0xbe790068	-0.24316561
158	0x3e7ef877	0.2489947
159	0x3c4b66e6	0.01241467
160	0xbe3636ac	-0.17794293
161	0x3eaaa6ab	0.33330283
162	0xbe295bce	-0.16538927
163	0x3e80110d	0.2501301
164	0x3e96e2d0	0.2946992
165	0x3e38545e	0.18000934
166	0xbe01ac18	-0.12663305
167	0x3d092d16	0.033490263
168	0xbe9c34ef	-0.30509135
169	0x3e039232	0.12848738
170	0x3c80f9c9	0.015744107
171	0x3e82c5c0	0.25541496
172	0xbe08bfbd	-0.13354392
173	0x3eaab407	0.33340475
174	0x3e4fa7e0	0.20278883
175	0xbdd83107	-0.10556226
176	0x3d7d1151	0.061784092
177	0xbea3ad87	-0.31968328
178	0xbe848eb7	-0.25890133
179	0xbe70aecd	-0.23504181
180	0xbe85d47d	-0.26138678
181	0x3e0dc436	0.1384438
182	0xbdc44d08	-0.09585005
183	0xbdf718dd	-0.12065289
184	0x3e87f43b	0.2655352
185	0x3db91050	0.090363145
186	0xbe339aa1	-0.17539455
187	0xbdaba51a	-0.083811
188	0xbda12a7c	-0.078694314
189	0x3e47d5df	0.19515179
190	0x3e95abfb	0.29232773
191	0x3e55de55	0.20885594
192	0xbe1dbb42	-0.15403464
193	0xbbe334d0	-0.006933786
194	0x3caee28d	0.021348262
195	0xbd9933a1	-0.074805506
196	0x3e5655f3	0.20931225
197	0x3d15e47c	0.036594853
198	0x3deb9653	0.115032814
199	0xbe5f3801	-0.21798708
200	0x3e536566	0.20644149
201	0xbe183477	-0.14863764
202	0x3ca7e833	0.020496463
203	0xbe7937cb	-0.2433769
204	0x3e8757dd	0.26434222
205	0xbd101b99	-0.03518257
206	0x3dad6f66	0.08468513
207	0xbe2aba9f	-0.16672753
208	0xba0ac5ba	-0.0005293746
209	0x3e128f3c	0.14312452
210	0x3e05fd60	0.13084936
211	0x3e8ed552	0.27897125
212	0xbdc1567b	-0.09440323
213	0x3d0e1ce3	0.034695517
214	0x3e7044bb	0.23463719
215	0xbdbf5282	-0.09341909
216	0xbe327c2d	-0.17430182
217	0xbe41768a	-0.18892875
218	0xbea9782b	-0.33099493
219	0xbe320d06	-0.1738778
220	0x3dda11d3	0.10647931
221	0x3d5c1fac	0.053741142
222	0x3d3a71ba	0.045518614
223	0x3e051637	0.12996756
224	0xbcf579c3	-0.029965287
225	0xbeb36277	-0.3503606
226	0x3e67a7ab	0.22622554
227	0xbe8dce23	-0.27696332
228	0x3c623027	0.013805426
229	0x3e052707	0.13003169
230	0x3dad9c56	0.08477084
231	0xbe3a2fb6	-0.18182263
232	0xbe9d3c4f	-0.30710074
233	0x3e6d2497	0.23158489
234	0xbc574df6	-0.013141146
235	0x3ea945af	0.33060977
236	0x3dd9dcb8	0.10637802
237	0x3e15a4e3	0.1461368
238	0x3d98144c	0.07425746
239	0xbcc37bc0	-0.02386272
240	0xbe18b514	-0.14912826
241	0x3d67d115	0.05659588
242	0x3e855a37	0.2604539
243	0x3e4c4730	0.19949031
244	0x3ec1d727	0.3785946
245	0x3e9d9a04	0.30781567
246	0x3e426386	0.18983278
247	0xbe660e32	-0.22466353
248	0xbe5398e3	-0.2066379
249	0xbcffe8a8	-0.031238869
250	0xbe6518b8	-0.2237271
251	0xbdf3707c	-0.11886689
252	0xbe1fc34d	-0.15601845
253	0x3e999a8a	0.30000716
254	0xbc70fad4	-0.01470824
255	0x3e974dfe	0.2955169

hyper_net1.net.1.0.bias f4 [16]
0	0xbdd41cc5	-0.1035705
1	0x3e3072e9	0.17231335
2	0xbc99d85a	-0.018779922
3	0xbe380907	-0.17972194
4	0xbd4b996b	-0.049706858
5	0xbe654d1f	-0.223927
6	0xbe1b25c7	-0.1515113
7	0xbe391430	-0.18074107
8	0x3e43d931	0.1912582
9	0xbdd29175	-0.1028165
10	0xbd0d15cd	-0.03444462
11	0x3dc35d49	0.09539277
12	0x3e02ca3f	0.12772463
13	0xbe22f3bc	-0.1591329
14	0x3de6c6cb	0.112683855
15	0x3ddf51c5	0.10904268

hyper_net1.net.2.0.weight f4 [16, 16]
0	0xbe4b159d	-0.19832464
1	0xbecad2a5	-0.39613834
2	0xbb107397	-0.0022041553
3	0x3d93b6ec	0.07212624
4	0xbe0f4b21	-0.13993503
5	0xbe464082	-0.19360545
6	0x3dcab54b	0.0989786
7	0x3d085e02	0.033292778
8	0xbd45615f	-0.048188563
9	0x3e5e0ccc	0.21684569
10	0xbe14037c	-0.14454454
11	0x3e71e08e	0.23620817
12	0xbe92c43a	-0.28665334
13	0xbe193906	-0.14963159
14	0x3e15ba78	0.14621913
15	0x3e76bda2	0.24095777
16	0x3d1a7ee9	0.037718687
17	0xbeab377f	-0.33440778
18	0xbcd7e48f	-0.026354102
19	0xbe167707	-0.14693843
20	0xbdd99a2b	-0.10625108
21	0xbd597ff2	-0.053100534
22	0x3da2e330	0.07953489
23	0xbd9377d6	-0.07200591
24	0xbe6ee488	-0.23329365
25	0xbe3ba817	-0.1832584
26	0xbe9b36d8	-0.3031528
27	0xbea3ae04	-0.319687
28	0x3e3502ff	0.17676924
29	0x3e23f403	0.16011052
30	0x3ea91d0a	0.33029968
31	0x3bc5c771	0.006035738
32	0xbd8bcc0b	-0.068260275
33	0xbe387173	-0.18012027
34	0x3e4bed31	0.199147
35	0xbe243576	-0.16036019
36	0x3e9544da	0.29154092
37	0xbe49c1b3	-0.19702797
38	0xbe9dfe88	-0.30858254
39	0xbe84f5b7	-0.25968716
40	0x3e7bfb02	0.2460747
41	0x3e8e8397	0.2783477
42	0x3cd74e0c	0.026282333
43	0x3d7a30c8	0.061081678
44	0x3ea86028	0.3288586
45	0x3e29ee7b	0.1659488
46	0x3e43474f	0.19070171
47	0xbe9a9c34	-0.301973
48	0x3de30a38	0.110859334
49	0x3ea631b7	0.32459804
50	0xbe6bb9c9	-0.2302009
51	0x3eacfd2a	0.337869
52	0xbe6ad576	-0.22932991
53	0xbdb00820	-0.085953
54	0xbd14d746	-0.036338113
55	0x3e0e360e	0.13887808
56	0x3e0c0f53	0.1367772
57	0xbe4edd54	-0.20201617
58	0x3e3e9d2c	0.18614644
59	0x3dde5c42	0.108574405
60	0xbd8ed5dc	-0.06974384
61	0xbeaf4ff6	-0.34240693
62	0x3ecf9112	0.40540367
63	0xbe354c88	-0.17704976
64	0xbe44d36b	-0.19221275
65	0x3edbb58f	0.42911956
66	0xbe23607b	-0.15954773
67	0x3e945c25	0.2897655
68	0x3e720048	0.2363292
69	0xbe956a04	-0.29182446
70	0xbea07cce	-0.31345218
71	0xbe7c26f5	-0.24624236
72	0x3dcfc735	0.101454176
73	0x3ec5053f	0.38480565
74	0xbd626863	-0.055275332
75	0xbd8af951	-0.067858346
76	0xbdd54462	-0.104134336
77	0xbe72e8df	-0.23721646
78	0x3ecba5a0	0.397748
79	0x3b1e06e0	0.0024112985
80	0xbe295ae9	-0.16538586
81	0xbe6b9fa3	-0.23010115
82	0x3e812743	0.25225267
83	0x3e5d430f	0.21607612
84	0x3e6b32b4	0.2296856
85	0xbd66db82	-0.056361683
86	0xbce39f38	-0.027785882
87	0x3e00d0af	0.12579606
88	0xbc735042	-0.014850678
89	0xbe124995	-0.14285882
90	0x3cdf13e8	0.027231172
91	0xbe1a8d08	-0.15092862
92	0xbe813751	-0.25237516
93	0xbdcc93c4	-0.099891216
94	0xbe98c562	-0.2983809
95	0xbcf26488	-0.029588953
96	0x3de7d3f7	0.11319726
97	0x3ec82b6e	0.39095634
98	0x3d9a946b	0.0754784
99	0xbc77732a	-0.015103141
100	0xbe8f71ae	-0.28016418
101	0xbe187000	-0.14886475
102	0xbdbb0c14	-0.09133163
103	0xbe917f9a	-0.28417665
104	0x3dd3201e	0.1030886
105	0x3ea59372	0.32339054
106	0x3e862ffa	0.26208478
107	0xbe3c2023	-0.18371634
108	0xbdfdcaf7	-0.12392228
109	0x3eb75cdc	0.35813034
110	0xbd34f2e8	-0.044176966
111	0xbec8e684	-0.3923837
112	0x3d8a1850	0.067429185
113	0x3d680024	0.05664076
114	0xbde64e20	-0.1124537
115	0xbc58fd59	-0.013243997
116	0xbe98c04f	-0.2983422
117	0x3dae2425	0.08502988
118	0xbe8133ec	-0.25234926
119	0x3dc5ef29	0.09664757
120	0x3e63beab	0.22240703
121	0xbe96549a	-0.2936142
122	0xbe2d88bf	-0.16946696
123	0x3dac42c5	0.08411173
124	0x3d0ea304	0.034823433
125	0x3e88018f	0.2656369
126	0xbd87ca63	-0.06630399
127	0x3e022d97	0.12712704
128	0xbcf64f6a	-0.030067164
129	0x3dd36641	0.10322238
130	0x3e34b5d7	0.17647491
131	0xbe6e09f4	-0.23245984
132	0x3e63d715	0.22250016
133	0xbd1798ec	-0.037011072
134	0x3ec4690b	0.3836139
135	0xbeaee216	-0.34156865
136	0x3cbc797a	0.023007143
137	0x3e50cad5	0.20389874
138	0x3e46171d	0.19344755
139	0x3d66e137	0.056367125
140	0xbe588d92	-0.21147755
141	0xbe776a61	-0.24161674
142	0xbe8f478c	-0.27984273
143	0x3e6eebcc	0.23332137
144	0xbe8d9d82	-0.2765923
145	0xbe3a66a8	-0.18203223
146	0x3e3201a8	0.17383444
147	0x3e54e08a	0.2078878
148	0xbeb18a4d	-0.34675828
149	0x3dd29f18	0.10284251
150	0x3cd640b7	0.026153905
151	0x3ed05157	0.40687057
152	0x3cafac12	0.021444354
153	0x3e4a8d01	0.19780351
154	0xbac36ce6	-0.0014909774
155	0x3e9c21b9	0.30494478
156	0xbd800c4b	-0.06252345
157	0xbe84d152	-0.2594095
158	0x3dce0a62	0.10060574
159	0xbe6ca54f	-0.23109935
160	0x3c419c3e	0.011817036
161	0x3e8681a5	0.26270786
162	0xbe2992e4	-0.1655994
163	0xbe816537	-0.25272533
164	0xbc0db2e8	-0.008648612
165	0xbd2be7e7	-0.041969206
166	0xbdaf4e0c	-0.08559808
167	0x3ea4a842	0.3215962
168	0x3de119f0	0.10991275
169	0xbe1121fd	-0.14173122
170	0x3baf6310	0.0053523853
171	0xbca0a4cd	-0.019609833
172	0xbe7194b0	-0.23591876
173	0x3e05058b	0.12990396
174	0xbe80fbd4	-0.2519213
175	0x3d627ba3	0.05529369
176	0x3e3dd550	0.18538404
177	0xbeb9ba60	-0.36275005
178	0x3c170caf	0.009219333
179	0x3ec76546	0.38944453
180	0x3e2f519b	0.17120974
181	0xbe3998d0	-0.181247
182	0x3da42a55	0.08015887
183	0xbed391b6	-0.41322106
184	0x3cbf0395	0.023317138
185	0x3eb2be8b	0.34910998
186	0x3ea5378b	0.32268938
187	0x3c81e74f	0.015857367
188	0x3e2b9e3d	0.16759582
189	0xbd4671a6	-0.048448227
190	0xbe092b18	-0.13395345
191	0x3c94d77a	0.018169153
192	0xbdb4b418	-0.08823413
193	0x3e0ee079	0.13952817
194	0x3dc5d495	0.096596874
195	0xbdd3d199	-0.10342712
196	0xbd7cdfc0	-0.061736822
197	0xbe838c4b	-0.25692973
198	0x38e1e383	0.000107712134
199	0x3e25adee	0.1617963
200	0x3e967abb	0.2939051
201	0xbeba4be9	-0.3638604
202	0xbe85471b	-0.26030812
203	0xbc43c5da	-0.011949027
204	0x3eadeaec	0.33968294
205	0x3ceb5bdb	0.028730324
206	0x3df2ad37	0.11849444
207	0x3da06084	0.07830909
208	0xbd9dcd3d	-0.07705162
209	0x3ea290a7	0.31750986
210	0x3e97a49a	0.2961777
211	0xbe615406	-0.22004709
212	0xbe8d148a	-0.27554733
213	0xbeb5956c	-0.35465562
214	0xbd9e6f22	-0.07736041
215	0xbd1688e6	-0.03675165
216	0x3e97786b	0.2958406
217	0xbede29e7	-0.43391344
218	0x3e84311a	0.25818712
219	0xbe32a577	-0.17445932
220	0x3d765517	0.06013974
221	0x3d044f2d	0.03230207
222	0x3e59a478	0.21254146
223	0xbea1281f	-0.31475922
224	0xbe65495e	-0.22391269
225	0xbc179ce6	-0.009253716
226	0x3e2b14f7	0.16707216
227	0xbe538e41	-0.20659734
228	0x3e170dea	0.14751402
229	0xbdb8a0ba	-0.09015031
230	0xbed0eae0	-0.40804195
231	0x3d8d5c29	0.06902344
232	0xbd3fa57f	-0.04678869
233	0x3e89558c	0.2682308
234	0x3e96e1b5	0.29469076
235	0x3e531e37	0.20616995
236	0x3e72b066	0.23700103
237	0xbead226f	-0.33815333
238	0xbebd4803	-0.36969003
239	0x3ca80779	0.020511376
240	0x3ccf364c	0.025294445
241	0xbe9b4f76	-0.3033406
242	0x3e54f9a7	0.2079836
243	0xbd3b02b4	-0.045656875
244	0xbe815227	-0.2525799
245	0x3e89d177	0.26917621
246	0x3eaeda6b	0.34151015
247	0x3d4f733c	0.050647005
248	0xbdf3585d	-0.11882088
249	0x3d1a86d6	0.037726246
250	0xbe8900d7	-0.26758453
251	0x3e34a193	0.1763976
252	0x3e8560cd	0.26050416
253	0xbcfc04a8	-0.030763939
254	0xbea1c6c7	-0.31596968
255	0x3e9ae6a8	0.30254102

hyper_net1.net.2.0.bias f4 [16]
0	0xbe6f9fba	-0.23400775
1	0x3c94215b	0.018082311
2	0xbcd39941	-0.025829913
3	0x3d5a593a	0.05330775
4	0xbddf439f	-0.109015696
5	0xbe276b5b	-0.16349547
6	0x3e156610	0.14589715
7	0xbd6fa0de	-0.058503024
8	0x3de05c2b	0.1095508
9	0x3e379aaf	0.17930101
10	0xbe1d87c0	-0.15383816
11	0xbdbffdf0	-0.093746066
12	0x3d02bbed	0.0319175
13	0xbe50425a	-0.20337811
14	0x3d53d3f7	0.051715817
15	0xbdb4803e	-0.08813523

hyper_net1.net.3.0.weight f4 [16, 16]
0	0xbe96b37e	-0.29433817
1	0xbe447daf	-0.1918857
2	0x3e48ad89	0.19597448
3	0xbe305017	-0.17218052
4	0x3c7557d6	0.014974555
5	0x3e97235e	0.2951917
6	0xbdc6390a	-0.09678848
7	0xbdbf381e	-0.093368754
8	0x3e97c0e1	0.29639342
9	0x3db34861	0.087540396
10	0x3de21e05	0.11040882
11	0xbdb0f49e	-0.08640407
12	0xbea52deb	-0.32261595
13	0x3c4b86c9	0.012422272
14	0xbe8f3789	-0.27972057
15	0xbe000446	-0.1250163
16	0xbea38a0d	-0.31941262
17	0x3eb83fa0	0.35986042
18	0xbe892799	-0.26788023
19	0x3ddefed9	0.10888452
20	0x3d5ea756	0.054358803
21	0x3e832310	0.25612688
22	0x3e7664b2	0.2406185
23	0xbe50529e	-0.20344016
24	0x3e49f265	0.19721372
25	0xbe35ef17	-0.17766987
26	0xbc6faa0d	-0.014627946
27	0xbe0f63e0	-0.14002943
28	0xbea38c54	-0.31943
29	0x3e119c9d	0.142199
30	0xbe65c6a2	-0.22439054
31	0x3ed232d0	0.41054392
32	0x3e200ca6	0.15629825
33	0xbe1b4fc2	-0.15167144
34	0xbe6587c1	-0.22415067
35	0xbec11d5c	-0.37717712
36	0xbe41117f	-0.1885433
37	0xbe82c14a	-0.25538093
38	0x3cba468f	0.022738723
39	0x3dcb54f2	0.099283114
40	0x3eb46503	0.35233316
41	0x3c9d63e6	0.019212674
42	0xbd829f5c	-0.06378052
43	0xbddd7d66	-0.108149335
44	0xbd9a99bf	-0.07548856
45	0x3e306aad	0.17228194
46	0xbeb5c8ef	-0.35504863
47	0xbec88c41	-0.39169505
48	0x3e037757	0.12838493
49	0xbdbcaa81	-0.092122085
50	0xbe011d87	-0.1260892
51	0xbe5d0c0b	-0.21586625
52	0xbe8889a0	-0.266675
53	0xbea56ec9	-0.32311085
54	0xbe4dc007	-0.20092784
55	0xbe84db75	-0.25948682
56	0xbe1db4fc	-0.15401071
57	0x3e8a68ab	0.2703298
58	0xbe6decc1	-0.23234846
59	0x3e5363b5	0.20643504
60	0xbea214e7	-0.31656572
61	0x3da6fb5d	0.081534125
62	0xba7fa87e	-0.00097525853
63	0xbe9857b7	-0.2975442
64	0x3bdf7aff	0.006820082
65	0x3ea39e84	0.31956875
66	0xbe37939a	-0.179274
67	0x3ea5c03f	0.32373235
68	0xbd0c6bec	-0.03428261
69	0xbdf28398	-0.11841506
70	0x3e321da7	0.17394124
71	0x3e8d4c12	0.275971
72	0x3eafbf24	0.34325516
73	0x3e688591	0.22707202
74	0xbeb08c1a	-0.3448189
75	0xbce720d6	-0.0282139
76	0x3d09ad9d	0.033612836
77	0xbe3b1a90	-0.18271852
78	0x3e215ebe	0.15758798
79	0xbdabacd2	-0.08382572
80	0xbeb49cee	-0.35275978
81	0xbe0d8fb3	-0.13824348
82	0xbe808340	-0.25100136
83	0x3e18e11d	0.14929624
84	0xbe7e7364	-0.24848706
85	0xbde397e9	-0.11112959
86	0x3d8dda20	0.0692637
87	0x3e18dacb	0.14927213
88	0xbe8d0e3b	-0.2754992
89	0x3e7c380e	0.24630758
90	0xbe823246	-0.2542898
91	0xbe8e3c5d	-0.2778043
92	0x3e291900	0.16513443
93	0xbe5ae4cd	-0.21376343
94	0x3e9c5996	0.305371
95	0x3df4d0b6	0.11953871
96	0xbe5a2458	-0.21302927
97	0xbd57e4ca	-0.052708425
98	0xbe497f69	-0.1967751
99	0xbce95499	-0.028482722
100	0xbd268a37	-0.040659156
101	0xbd12aff8	-0.035812348
102	0xbe62d2b8	-0.22150695
103	0xbe841ba1	-0.2580233
104	0xbe5a22ca	-0.21302333
105	0x3d47f1e7	0.04881468
106	0x3bb01a45	0.0053742253
107	0xbe22429b	-0.1584572
108	0xbcd708b5	-0.026249269
109	0x3d067ded	0.032834936
110	0x3e6de192	0.2323058
111	0xbe9e3455	-0.308993
112	0xbe30402f	-0.17211984
113	0xbd85373e	-0.06504677
114	0xbd96601b	-0.073425494
115	0xbe3d02b6	-0.18458065
116	0x3e3429b6	0.17594036
117	0xbe1c6968	-0.15274584
118	0x3d85e34a	0.065374926
119	0xbe52cb6d	-0.20585413
120	0x3ec8ab84	0.39193356
121	0xbe4c5364	-0.19953686
122	0xbdc3f460	-0.09568095
123	0x3e806834	0.250795
124	0x3e6c7d5b	0.23094694
125	0xbea76c75	-0.32699934
126	0x3e84d020	0.25940037
127	0xbe51f7f8	-0.20504749
128	0xbce8dbc7	-0.02842511
129	0x3e0bcd86	0.1365262
130	0x3d53cb00	0.051707268
131	0x3e9779ad	0.2958502
132	0xbe05b889	-0.13058676
133	0xbe86ddf2	-0.26341206
134	0xbaa7bf7a	-0.0012798153
135	0x3e1b91ab	0.15192287
136	0x3e93b9da	0.2885273
137	0xbe3a987f	-0.18222235
138	0xbcb35dac	-0.021895252
139	0xbe2c9110	-0.16852212
140	0xbea7fcb4	-0.32809985
141	0xbe842742	-0.258112
142	0xbe8e632a	-0.2781003
143	0xbe8ae42e	-0.27127212
144	0x3e1750c8	0.1477691
145	0xbda6b15e	-0.08139299
146	0x3e8da3bf	0.2766399
147	0x3e9d853c	0.30765712
148	0xbe96f045	-0.29480186
149	0x3dcf83c5	0.10132555
150	0x3e4735e7	0.19454156
151	0xbe8d54c3	-0.2760373
152	0xbe17ca63	-0.14823298
153	0x3e9912d3	0.29897174
154	0xbe9121b8	-0.28346038
155	0x3ebee5e5	0.3728477
156	0x3c44e467	0.012017346
157	0x3d6737c7	0.056449678
158	0x3e9ef8a7	0.31049082
159	0xbed3eb76	-0.4139058
160	0x3eac78cc	0.3368591
161	0xbeaf7559	-0.34269217
162	0x3e30dc81	0.17271616
163	0xbcdbfbc2	-0.026853446
164	0x3e955a15	0.2917029
165	0xbcf3d5db	-0.02976506
166	0xbec13f8f	-0.37743804
167	0x3ba2cdf4	0.004968399
168	0x3e9a38ef	0.30121562
169	0xbda1f7e9	-0.07908613
170	0xbed792a6	-0.4210407
171	0xbdc40c72	-0.09572686
172	0x3d7065e7	0.05869093
173	0x3d70841a	0.058719732
174	0x3dea5f29	0.114439316
175	0xbcb6c97d	-0.022312874
176	0xbd1b23e2	-0.037876017
177	0xbd627e6c	-0.055296347
178	0x3e0b6f1d	0.13616605
179	0x3dd88a0e	0.10573207
180	0x3e11a090	0.14221406
181	0xbd84cdcf	-0.064845674
182	0xbc63b218	-0.013897441
183	0x3e76b82e	0.24093696
184	0x3d9b115c	0.075716704
185	0xbec6bc03	-0.38815317
186	0x3d66993d	0.056298483
187	0x3e9f6e2b	0.3113874
188	0xbd6d7dcc	-0.057981297
189	0x3e560e7c	0.20903963
190	0xbe9964b6	-0.2995965
191	0xbd2452a6	-0.040117882
192	0x3e93f491	0.28897527
193	0xbe680772	-0.2265909
194	0xbd98b6c1	-0.074567325
195	0x3c1cedfc	0.009578224
196	0xbcfcabdc	-0.030843668
197	0xbdb36091	-0.08758653
198	0x3e80ed67	0.25181124
199	0xbcdd70b5	-0.027031282
200	0xbe03159a	-0.12801209
201	0x3e9afebb	0.3027247
202	0x3de37c4f	0.11107694
203	0xbde4794f	-0.1115595
204	0x3e6e8d45	0.23296078
205	0xbdfb0779	-0.12257285
206	0x3eb30862	0.34967333
207	0x3ea41aeb	0.32051787
208	0x3d4c9f14	0.049956396
209	0x3db0ec01	0.08638764
210	0xbe1c9aa0	-0.1529336
211	0xbe9723fc	-0.2951964
212	0xbe8386ed	-0.25688878
213	0x3e19977f	0.14999197
214	0x3e2f919e	0.17145392
215	0x3cc118aa	0.023571331
216	0xbe236231	-0.15955426
217	0xbdfbeee8	-0.12301427
218	0xbe4e32b8	-0.20136535
219	0xbe419d6e	-0.18907711
220	0x3e82dcb6	0.25559014
221	0xbea64807	-0.32476828
222	0x3e85aed3	0.26109943
223	0x3e542003	0.20715337
224	0xbda8b424	-0.08237484
225	0xbd03d808	-0.032188445
226	0xbde15c5e	-0.11003946
227	0xbeaffca0	-0.34372425
228	0x3d73de17	0.059537973
229	0xbe8b124d	-0.271624
230	0xbd1d96f5	-0.038474042
231	0xbdef37a2	-0.11680533
232	0xbe986932	-0.29767758
233	0xbebaa054	-0.36450446
234	0x3eb1eda5	0.3475162
235	0x3e68c6be	0.22732064
236	0x3eae84b3	0.34085616
237	0x3d8a061f	0.06739449
238	0x3deabfd6	0.11462371
239	0x3e2ff700	0.17184067
240	0x3e61e288	0.22059071
241	0x3d4afbc2	0.0495565
242	0xbb2a2d00	-0.0025966763
243	0x3e5ac5ac	0.21364468
244	0x3df381d5	0.11889998
245	0xbe790434	-0.2431801
246	0x3e589764	0.21151501
247	0x3e8c465f	0.2739744
248	0xbdef631e	-0.11688827
249	0xbec8e24f	-0.3923516
250	0xbd7a4967	-0.06110516
251	0xbe100eec	-0.14068192
252	0x3ebced40	0.36899757
253	0xbe037120	-0.12836123
254	0xbe2980a6	-0.16552982
255	0x3e8da566	0.27665251

hyper_net1.net.3.0.bias f4 [16]
0	0x3e5083d2	0.20362785
1	0x3b378c5a	0.002800724
2	0xbe343851	-0.17599608
3	0x3d24aa60	0.040201545
4	0xbda57a93	-0.0808002
5	0x3de74ccc	0.11293945
6	0x3e6d7387	0.23188601
7	0xbe084ee3	-0.13311343
8	0xbc947ff9	-0.018127428
9	0x3e5f2e65	0.21795042
10	0xbe3280c6	-0.17431936
11	0xbc92acda	-0.017904688
12	0x3e58097e	0.21097371
13	0x3e189ed7	0.14904343
14	0x3d6c731e	0.05772697
15	0xbd8b966c	-0.068158

hyper_net1.out.weight f4 [7, 16]
0	0x3e38e0a9	0.18054451
1	0x3e138eed	0.1440999
2	0x3e882f1b	0.2659844
3	0xbee00593	-0.43754253
4	0x3e4e0b63	0.20121531
5	0xbe6b4732	-0.22976378
6	0x3de4705a	0.11154242
7	0xbdf9e276	-0.12201397
8	0x3ec297a9	0.38006333
9	0xbe177939	-0.14792337
10	0x3d62a4eb	0.05533306
11	0xbea39238	-0.31947494
12	0x3e81f9f2	0.25386006
13	0xbeee88f8	-0.46588874
14	0x3e8c396b	0.27387556
15	0x3ea179ad	0.31538144
16	0x3ec11d6b	0.37717757
17	0x3e963b0e	0.2934193
18	0xbe212f6a	-0.15740743
19	0x3ddb556a	0.10709651
20	0x3dc47240	0.09592104
21	0xbef857f1	-0.48504594
22	0x3e5cc9d2	0.21561363
23	0xbec58301	-0.3857651
24	0x3e112fee	0.1417844
25	0x3ebb72ac	0.36610925
26	0xbde7f308	-0.113256514
27	0x3dcda148	0.100405276
28	0x3ed0e11d	0.40796748
29	0x3ec0afdf	0.3763418
30	0x3ec5f9ed	0.3866724
31	0xbeaf39fb	-0.34223923
32	0x3d703816	0.058647238
33	0xbec764b4	-0.38944018
34	0x3d8fe433	0.070259474
35	0xbed36ae1	-0.4129248
36	0x3d9e841d	0.07740042
37	0x3e87996e	0.26484245
38	0xbe9e2b55	-0.30892435
39	0xbd9ccc2c	-0.0765613
40	0xbdf655b3	-0.120280646
41	0x3e962ace	0.29329532
42	0xbd7ff440	-0.062488794
43	0x3e6beede	0.2304034
44	0xbe97c7a2	-0.29644495
45	0x3ddd2e47	0.10799842
46	0x3ea43d20	0.32077885
47	0x3d0e471a	0.034735776
48	0xbe0c0e6d	-0.13677378
49	0xbe5aa1d2	-0.21350792
50	0x3e7cc6b8	0.2468518
51	0x3e4ef218	0.20209539
52	0x3b9c22e9	0.004764904
53	0x3e8a1b89	0.26974133
54	0xbe4d7191	-0.20062853
55	0xbeab7ab0	-0.3349204
56	0xbddaa918	-0.10676783
57	0x3e962092	0.29321724
58	0xbeee3a5c	-0.465289
59	0xbe4506fa	-0.19240943
60	0x3d9b1726	0.075727746
61	0x3e227704	0.15865713
62	0x3e7ea97a	0.24869338
63	0x3e03ee72	0.12883928
64	0xbebc8bae	-0.36825317
65	0xbe22ef11	-0.15911509
66	0x3e352103	0.17688374
67	0x3d9954f1	0.074869044
68	0x3e6f0901	0.23343278
69	0x3ea8a058	0.32934833
70	0x3e5f46de	0.21804377
71	0xbe1a2534	-0.15053254
72	0xbe6244cf	-0.22096561
73	0xbde92b16	-0.11385171
74	0x3bcc9a47	0.006243977
75	0xbb19db01	-0.0023476484
76	0xbdf5019e	-0.11963199
77	0x3d3848d9	0.044991348
78	0x3e935363	0.28774557
79	0xbeafb394	-0.34316695
80	0x3e89d91b	0.2692345
81	0xbf0176d6	-0.50571954
82	0xbac12d43	-0.001473822
83	0xbedb75ea	-0.428634
84	0x3ee65d3a	0.44993
85	0xbee347c2	-0.44390684
86	0xbe7469c2	-0.23868468
87	0x3e97bad4	0.29634726
88	0x3e64e5f3	0.22353344
89	0x3ea230b9	0.31677797
90	0x3e22b744	0.15890223
91	0xbeca5d74	-0.39524424
92	0xbec32e00	-0.38121033
93	0x3e9ead78	0.3099172
94	0xbef9237f	-0.48659894
95	0x3eda1981	0.42597583
96	0xbd586be2	-0.05283726
97	0x3d7584ff	0.059941288
98	0xbc4cda5e	-0.012503235
99	0xbdbf1582	-0.09330274
100	0xbe1c9a40	-0.15293217
101	0x3de9e9b1	0.11421526
102	0xbd5214cb	-0.05128936
103	0x3cfdc90f	0.030979661
104	0x3eba689f	0.36407945
105	0x3d27cadd	0.04096495
106	0xbeb6c391	-0.3569608
107	0xbeaa9f3e	-0.33324617
108	0x3e914327	0.28371546
109	0x3e0b16e6	0.13582954
110	0x3d7a6a92	0.06113679
111	0xbe8c5472	-0.27408177

hyper_net1.out.bias f4 [7]
0	0xbe1963b5	-0.14979441
1	0xbd8957b3	-0.067061804
2	0xbe44940b	-0.19197099
3	0xbe514a19	-0.20438422
4	0xbd9a991d	-0.07548735
5	0x3e5e57da	0.217132
6	0xbdc6debc	-0.09710452

hyper_net2.net.0.weight f4 [16, 8]
0	0xbe4ea949	-0.20181765
1	0x3ecaf5e2	0.3964072
2	0xbea7780c	-0.32708776
3	0xbda17eae	-0.0788549
4	0x3c09f485	0.008420114
5	0x3e1e8713	0.15481214
6	0xbb99fd13	-0.0046993583
7	0xbec33359	-0.38125113
8	0x3d8a4d7c	0.0675306
9	0xbd2c0f26	-0.042006634
10	0xbdc27978	-0.094958246
11	0xbe8edd95	-0.2790343
12	0x3dd36328	0.10321647
13	0x3ab9b149	0.0014167215
14	0x3c565270	0.013081178
15	0x3e7e3698	0.24825513
16	0x3ec3f7b5	0.38274923
17	0xbdc36101	-0.095399864
18	0x3d76cf82	0.06025649
19	0xbe7daaad	-0.24772139
20	0xbdef5155	-0.11685435
21	0xbd25ce81	-0.04048014
22	0x3cf1c9c5	0.029515157
23	0xbe88a4a9	-0.26688126
24	0x3dbd1fa8	0.092345536
25	0x3dd730ca	0.10507353
26	0xbe1365cd	-0.14394303
27	0x3d89046b	0.06690296
28	0x3de526a9	0.111890145
29	0xbb0c3c7e	-0.002139836
30	0x3d34411a	0.0440074
31	0x3e53a042	0.20666602
32	0x3ec936fc	0.39299762
33	0xbe9c4b84	-0.30526364
34	0x3ec93dc4	0.39304936
35	0x3cabad08	0.020956531
36	0xbc4f6c78	-0.012660138
37	0xbc36843a	-0.011139924
38	0xbdc63fe0	-0.09680152
39	0xbe142b43	-0.14469628
40	0xbe9f861e	-0.3115701
41	0xbd15445f	-0.036442157
42	0x3df1bdfb	0.11803814
43	0xbe490bbd	-0.19633384
44	0x3c608837	0.013704351
45	0xbe545f5c	-0.20739502
46	0x3d1ab40b	0.03776936
47	0xbec2e07c	-0.38061893
48	0xbd0b2649	-0.03397206
49	0x3ea6a128	0.32544827
50	0xbeea95ec	-0.45817506
51	0xbeba3472	-0.36368138
52	0xbd86c4f6	-0.06580536
53	0xbd16dace	-0.036829762
54	0xbde9847b	-0.11402222
55	0x3ec6daba	0.3883875
56	0xbe9fbdb9	-0.31199434
57	0x3e418d46	0.18901548
58	0xbeb27c47	-0.3486044
59	0xbe0d6b3f	-0.13810442
60	0xbe168cab	-0.14702098
61	0xbe54fed1	-0.2080033
62	0xbdb21ca6	-0.086968705
63	0xbcabde2a	-0.02097996
64	0x3dd47afb	0.10375019
65	0x3e0ee83f	0.13955782
66	0x3e0b889d	0.13626333
67	0x3e62518d	0.22101422
68	0xbb3f87c6	-0.0029225214
69	0x3e51c3aa	0.20484796
70	0xbe2f6dd0	-0.17131734
71	0xbe770113	-0.24121504
72	0xbe9d5689	-0.30730084
73	0xbe9a187e	-0.3009681
74	0xbea8bb9a	-0.3295563
75	0xbeb1b8f5	-0.34711424
76	0x3e662ce5	0.22478063
77	0x3c8bc812	0.017063174
78	0x3ddc07aa	0.10743649
79	0xbdf2a61c	-0.11848089
80	0x3d8c6217	0.06854647
81	0xbe940279	-0.28908136
82	0xbef87a6c	-0.485309
83	0x3c93a6e2	0.018023912
84	0x3dad7102	0.0846882
85	0xbc1d7df2	-0.009612547
86	0x3ce1f945	0.027584681
87	0x3e2305ec	0.15920228
88	0x3e79e65c	0.24404281
89	0xbec71a18	-0.38887095
90	0xbe2747e0	-0.16336012
91	0x3c8a64cf	0.016893772
92	0x3e4ddda7	0.20104085
93	0x3e4cdb31	0.2000549
94	0xbdb20cf3	-0.08693876
95	0xbe8d6f06	-0.27623767
96	0x3ebfec71	0.37485078
97	0xbd801e52	-0.06255783
98	0xbe935192	-0.2877317
99	0xbe44712e	-0.191838
100	0x3d81549a	0.063149646
101	0x3d997b53	0.07494225
102	0x3e3add3c	0.18248457
103	0xbe03fc13	-0.12889127
104	0xbdb0face	-0.08641587
105	0xbd3936df	-0.045218345
106	0x3ec1b034	0.37829745
107	0xbeb3be0f	-0.3510594
108	0x3d19ad2c	0.037518665
109	0xbdd02afb	-0.10164448
110	0xbbde677d	-0.006787239
111	0x3eb4382d	0.3519911
112	0xbdcb0a7f	-0.09914111
113	0xbe2ee65d	-0.17080064
114	0x3c4917ed	0.012273771
115	0x3df61b22	0.12016894
116	0x3e055090	0.13019013
117	0xbe516859	-0.20449962
118	0x3e02d467	0.12776338
119	0xbe253925	-0.1613508
120	0x3d14d14e	0.03633242
121	0xbe9052f0	-0.28188276
122	0x3dd7e8c1	0.10542441
123	0xbebe65d8	-0.37187076
124	0xbdacc026	-0.08435087
125	0xbd077107	-0.033066776
126	0x3dc081e9	0.093997784
127	0x3da98292	0.082768574

hyper_net2.net.0.bias f4 [16]
0	0x3c3e349d	0.011609224
1	0xbe643aa2	-0.22287992
2	0xbea598b1	-0.32343057
3	0x3e58fbd9	0.21189822
4	0x3e122cf9	0.14274968
5	0xbe98f2e4	-0.2987281
6	0x3cbb27bc	0.022846095
7	0x3e61ede6	0.22063407
8	0x3e146790	0.14492631
9	0x3e885e04	0.26634228
10	0xbe1860df	-0.14880703
11	0x3e148348	0.14503205
12	0xbe871bb5	-0.26388326
13	0x3bbfa304	0.0058482904
14	0xbe0f9393	-0.14021139
15	0xbd839cb0	-0.0642637

hyper_net2.net.2.weight f4 [16, 16]
0	0xbe9f5e1c	-0.31126487
1	0x3dd0a9ee	0.101886615
2	0x3eb99146	0.36243647
3	0xbebad11b	-0.3648766
4	0x3e89484a	0.26812965
5	0x3e95d9c6	0.2926771
6	0x3d839ca2	0.0642636
7	0xbe408339	-0.18800057
8	0x3e3f1476	0.18660149
9	0x3e2b803e	0.1674814
10	0xbe2febda	-0.17179814
11	0xbe875d6b	-0.2643846
12	0xbe8d815e	-0.27637762
13	0xbdfc8723	-0.12330463
14	0x3d76703d	0.060165633
15	0x3e14304b	0.14471547
16	0x3b09210e	0.0020924243
17	0x3e6351ef	0.22199224
18	0x3dcd2d49	0.10018403
19	0x3d927096	0.0715038
20	0xbe0f7e7b	-0.14013092
21	0xbd98d594	-0.07462612
22	0x3e0d88c5	0.13821705
23	0x3d73836f	0.059451517
24	0xbd9affba	-0.07568307
25	0xbe462e7b	-0.19353668
26	0xbe85aea0	-0.2610979
27	0x3cd623c4	0.026140101
28	0xbe208f50	-0.1567967
29	0xbd38f3ba	-0.04515431
30	0xbcc567dd	-0.024097377
31	0xbe674ef5	-0.22588713
32	0x3e5f461a	0.21804085
33	0xbb2f100f	-0.0026712453
34	0xbebac81c	-0.36480796
35	0xbe9e5501	-0.30924228
36	0xbe72e910	-0.23721719
37	0xbe2e60b8	-0.17029083
38	0x3cfd4368	0.03091593
39	0x3da5a70c	0.08088502
40	0xbbb282bf	-0.005447715
41	0xbec5cd56	-0.3863322
42	0xbe958217	-0.29200813
43	0xbe5f7612	-0.21822384
44	0x3e851b8e	0.25997585
45	0x3c8046c8	0.015658751
46	0xbeb0c16f	-0.34522578
47	0xbe053dae	-0.1301181
48	0xbe3d387d	-0.1847858
49	0x3d1a4358	0.03766188
50	0xbcf91c53	-0.030409014
51	0xbccd03d8	-0.025026247
52	0x3e09521b	0.13410227
53	0xbe409cc7	-0.18809806
54	0x3d49d605	0.04927637
55	0xbc23f2e6	-0.010006642
56	0x3d0885f0	0.033330858
57	0xbe6dd9c3	-0.23227601
58	0xbdb95685	-0.090497054
59	0x3de30089	0.110840864
60	0xbe2497af	-0.16073488
61	0xbdbbb8ef	-0.09166133
62	0xbd2dc006	-0.042419456
63	0xbe1bd469	-0.15217747
64	0xbe3b17be	-0.18270776
65	0xbdcbbe63	-0.09948423
66	0xbc798520	-0.015229493
67	0xbda02d7b	-0.07821175
68	0x3d2df9ed	0.042474676
69	0xbe89a831	-0.26886132
70	0xbd9a8850	-0.07545531
71	0xbe42b86a	-0.19015661
72	0x3df021c0	0.11725187
73	0x3eba5423	0.36392316
74	0xbe6efb56	-0.23338065
75	0xbe772a0e	-0.24137136
76	0x3e954789	0.2915614
77	0x3e7a6517	0.24452625
78	0x3e101d62	0.14073709
79	0xbe049be1	-0.12950088
80	0x3dcb6345	0.099310435
81	0x3d1d6f48	0.038436204
82	0x3e8ec5d3	0.27885303
83	0x3e90c35c	0.28274047
84	0xbda4f8a7	-0.08055239
85	0x3e08d54f	0.13362621
86	0xbe9c928a	-0.3058055
87	0x3d473e53	0.04864342
88	0xbe6854c9	-0.22688593
89	0x3e9a8064	0.3017608
90	0xbea12ffb	-0.3148192
91	0xbec88e36	-0.39170998
92	0xbeba3533	-0.36368713
93	0xbdaebd89	-0.08532245
94	0xbb917c83	-0.004439892
95	0xbd73cb3e	-0.05952
96	0x3e338b03	0.17533498
97	0xbe6d971d	-0.23202176
98	0xbe340eff	-0.17583846
99	0xbd9e2c7c	-0.077233285
100	0x3c995cf4	0.018721081
101	0xbd478401	-0.048709873
102	0x3ddc668a	0.10761745
103	0x3e0d8a44	0.13822275
104	0xbd916e82	-0.07101156
105	0x3c4a95eb	0.012364845
106	0xbd189eae	-0.037260704
107	0x3d8b9923	0.06816318
108	0xbdfa57e3	-0.12223794
109	0xbdb21748	-0.08695847
110	0xbe690d53	-0.22758989
111	0x3e7c5013	0.24639921
112	0x3e4dbd53	0.20091753
113	0xbe39b535	-0.18135531
114	0xba1d5e66	-0.0006003141
115	0xbe29a239	-0.1656579
116	0xbdce2fd7	-0.100677185
117	0xbe9fc7e7	-0.312072
118	0x3c99ea4a	0.018788476
119	0xbdde0653	-0.1084105
120	0xbe7e171b	-0.24813502
121	0x3eb2860f	0.34867904
122	0x3d94f8ef	0.07274043
123	0x3e70eaf6	0.2352713
124	0x3d2444c7	0.040104654
125	0x3d49a2ba	0.049227454
126	0xbe22d7fc	-0.15902704
127	0x3da840b4	0.08215466
128	0x3e2b0a6e	0.16703197
129	0x3d09fe2c	0.033689663
130	0xbdf94eb7	-0.12173217
131	0x3e6c9f31	0.23107602
132	0xbd179325	-0.037005562
133	0xbe4a3049	-0.19744982
134	0x3dc3e9c1	0.095660694
135	0x3e388be6	0.18022117
136	0x3e7ef765	0.24899061
137	0x3e832de1	0.2562094
138	0x3e96d2bb	0.2945765
139	0xbe8958cc	-0.2682556
140	0x3df99868	0.12187272
141	0x3e546aac	0.20743817
142	0xbe2db43c	-0.16963285
143	0x3d9ca8ed	0.076494075
144	0xbd902eb6	-0.070401594
145	0xbd11c878	-0.035591573
146	0x3e140beb	0.14457671
147	0x3a9741d2	0.0011540002
148	0xbd820e74	-0.06350413
149	0xbd0c058d	-0.03418498
150	0x3da0847f	0.078377716
151	0xbd8f9791	-0.07011331
152	0x3e0d4686	0.13796434
153	0xbe9d7545	-0.30753532
154	0xbe3bdb4e	-0.18345377
155	0x3e01d8e5	0.12680395
156	0x3c9e46a9	0.019320803
157	0x3e2577ee	0.16159031
158	0x3e01c0ae	0.12671158
159	0x3c81236a	0.015763957
160	0x3dae8f59	0.08523435
161	0x3e626a10	0.22110772
162	0xbeb420ec	-0.35181367
163	0xbe1d36b4	-0.15352899
164	0x3e9a100f	0.30090377
165	0xbe999435	-0.29995885
166	0x3e07f5a4	0.13277298
167	0x3e7cc560	0.24684668
168	0x3e0b02be	0.13575265
169	0xbe7a989d	-0.2447228
170	0xbe63e336	-0.22254643
171	0x3e00f41e	0.12593123
172	0xbe3195ed	-0.17342348
173	0x3e02d26e	0.12775585
174	0x3e0159f6	0.12631974
175	0x3d937567	0.07200127
176	0x3ec7e757	0.39043686
177	0xbec6723e	-0.38759035
178	0xbeb567a7	-0.35430643
179	0x3e7753f3	0.24153118
180	0xbd95d005	-0.07315067
181	0xbeb88f2d	-0.36046734
182	0xbe356441	-0.17714025
183	0x3e88c53b	0.26712975
184	0xbd7d40ae	-0.06182926
185	0x3e6ab778	0.2292155
186	0x3e796988	0.24356663
187	0xbdc5393c	-0.09630057
188	0x3e5cfa4b	0.21579854
189	0x3dbdd566	0.09269218
190	0xbe6c276a	-0.2306191
191	0xbd828597	-0.063731365
192	0x3e3550dd	0.17706628
193	0x3e1feb2f	0.15617059
194	0x3d184f25	0.037184853
195	0xbd195ede	-0.037443988
196	0xbe7a4048	-0.24438584
197	0xbdf87ea5	-0.121335305
198	0x3e5116b1	0.20418812
199	0xbbfe538a	-0.0077614235
200	0xbe5f5e10	-0.21813226
201	0x3cffff2e	0.031249609
202	0xbe881fcb	-0.26586756
203	0xbd7c0593	-0.061528753
204	0xb9ef4892	-0.000456397
205	0xbe90fc9a	-0.2831772
206	0xbe5aa704	-0.21352774
207	0xbe3b932a	-0.18317857
208	0xbe836866	-0.25665587
209	0x3e7ae9ca	0.24503246
210	0x3e43438c	0.19068736
211	0xbea6a419	-0.32547072
212	0xbde18371	-0.110113986
213	0x3ead27eb	0.33819517
214	0x3e9f9462	0.31167895
215	0x3d28f40a	0.04124836
216	0xbc4e0981	-0.012575508
217	0xbe93c7ed	-0.2886347
218	0x3e86def1	0.26341966
219	0xbdb00cd5	-0.085961975
220	0x3d72a780	0.05924177
221	0xbdf04da1	-0.117335565
222	0x3e30bfd7	0.17260681
223	0x3ddf671b	0.10908338
224	0xbdf4115a	-0.11917372
225	0xbb41387d	-0.0029483133
226	0xbcea573e	-0.028606053
227	0xbe934d33	-0.28769836
228	0xbd4d35db	-0.05010019
229	0xbea84379	-0.32863978
230	0x3eab0685	0.33403412
231	0x3e02ae9a	0.12761918
232	0xbcb6cef8	-0.022315487
233	0x3e8119b3	0.2521492
234	0x3c7622de	0.015022961
235	0x3eaecd14	0.34140837
236	0x3d67c7be	0.056586973
237	0x3e5e5443	0.21711831
238	0x3d06bfdf	0.032897826
239	0xbe5464b3	-0.20741539
240	0xbe9ea0de	-0.30982107
241	0xbe2864a9	-0.16444649
242	0x3e925c58	0.28586078
243	0x3e26d050	0.16290402
244	0xbd81d85b	-0.06340095
245	0xbe54422e	-0.2072837
246	0x3e986f02	0.29772192
247	0x3d1edc41	0.03878427
248	0xbe8fc5c3	-0.28080568
249	0xbde5c25d	-0.112187125
250	0x3ce966e4	0.028491445
251	0xbc19d5e7	-0.009389377
252	0xbe000a54	-0.1250394
253	0x3da600ef	0.08105647
254	0xbe5daea0	-0.21648645
255	0x3e0356c7	0.12826072

hyper_net2.net.2.bias f4 [16]
0	0x3cd2e4ff	0.02574396
1	0xbe1100d2	-0.14160469
2	0x3e2e6c8d	0.17033596
3	0x3e158859	0.14602794
4	0xbe16f0e5	-0.14740331
5	0x3aeeff99	0.0018234133
6	0xbd3922e1	-0.04519928
7	0xbe1e6259	-0.15467204
8	0xbe1aeb95	-0.1512893
9	0xbd5da726	-0.054114483
10	0x3e17c937	0.14822851
11	0x3d4e53dd	0.050372947
12	0x3db15d03	0.08660319
13	0xbd11310f	-0.035447177
14	0x3e114cde	0.14189479
15	0x3da5c948	0.08095032

hyper_net2.net.4.weight f4 [16, 16]
0	0xbdf5f9ee	-0.12010561
1	0x3e934dbe	0.2877025
2	0x3e928c5a	0.28622705
3	0x3ea62b07	0.32454702
4	0xbe93a3aa	-0.28835803
5	0xbd8b77fb	-0.06809994
6	0xbcc95e0a	-0.024580974
7	0xbeaa1035	-0.3321549
8	0x3e06924e	0.13141748
9	0xbde63cea	-0.11242087
10	0xbb870cc8	-0.0041213967
11	0x3dd4f025	0.103973664
12	0xbe24d926	-0.1609846
13	0x3dc71343	0.09720471
14	0xbe167ba3	-0.14695601
15	0x3e7915a0	0.24324656
16	0x3e6748d6	0.22586378
17	0xbd622a56	-0.055216156
18	0xbe51ccc8	-0.20488274
19	0x3e5683c5	0.20948704
20	0xbe4350c9	-0.19073786
21	0x3e5d295b	0.21597807
22	0x3e190586	0.14943513
23	0x3e046fed	0.12933321
24	0xbdfb09e6	-0.12257747
25	0x3e84a768	0.2590897
26	0x3e8d1daf	0.2756171
27	0xbcf4423e	-0.029816743
28	0xbdf48754	-0.11939874
29	0x3caed5df	0.021342216
30	0x3e3bd8e7	0.1834446
31	0x3ea2c98d	0.31794396
32	0xbe9d87fa	-0.30767804
33	0x3eabcb5c	0.33553588
34	0xbe94172e	-0.28923935
35	0x3d6d5dee	0.057950906
36	0xbe4869e0	-0.19571638
37	0xbe127ab4	-0.1430462
38	0xbd8e43fa	-0.06946559
39	0x3d22cf49	0.039748464
40	0xbeb74dfe	-0.3580169
41	0xbe2b3ba8	-0.16721976
42	0x3e88bacc	0.26705015
43	0xbd205441	-0.03914285
44	0xbe4f16c0	-0.20223522
45	0x3e9b4aa2	0.30330378
46	0xbea6b01a	-0.3255623
47	0xbe109e7b	-0.14122956
48	0x3e6ff5ca	0.23433605
49	0x3d8d877e	0.06910609
50	0xbdf3245b	-0.11872169
51	0xbe4c7ffa	-0.19970694
52	0xbd8a4980	-0.067523
53	0xbe4e8b98	-0.20170438
54	0xbbe28cf8	-0.0069137774
55	0x3eaff412	0.34365898
56	0x3e738d79	0.23784436
57	0xbdc638ea	-0.09678824
58	0x3e8539bb	0.26020607
59	0xbe8d8a69	-0.2764466
60	0x3ca85ed3	0.020553028
61	0x3eb5994e	0.35468525
62	0x3d6f755a	0.058461525
63	0xbe8fa6c9	-0.28056934
64	0x3cb1c90a	0.021702308
65	0x3e9409bc	0.28913677
66	0xbc09e8ea	-0.008417347
67	0x3e867db9	0.26267794
68	0xbea470b3	-0.32117233
69	0x3e48755f	0.19576024
70	0xbea8b724	-0.32952225
71	0x3e21b9af	0.15793489
72	0xbea233d5	-0.3168017
73	0xbdc8de9a	-0.09808083
74	0xbc6a8592	-0.014314072
75	0xbd14d2a4	-0.036333695
76	0xbcbad813	-0.02280811
77	0xbe909d7b	-0.28245148
78	0xbe9c7578	-0.30558372
79	0x3e9a0e3d	0.30088988
80	0x3d383159	0.044968937
81	0x3d974f59	0.07388181
82	0xbd4c074f	-0.049811658
83	0x3df8aa37	0.12141841
84	0x3de4538e	0.11148749
85	0xbe18e567	-0.1493126
86	0x3d4537f4	0.048149064
87	0x3c0820a8	0.008308567
88	0x3ecd22f8	0.40065742
89	0xbeb4467a	-0.3521002
90	0xbe80a47c	-0.25125492
91	0xbe1daf7d	-0.15398975
92	0x3e41125e	0.18854663
93	0xbe77ca2f	-0.2419822
94	0xbe568456	-0.2094892
95	0xbe172c81	-0.1476307
96	0x3c244871	0.010027037
97	0xbec47c28	-0.38375974
98	0x3d3e72f0	0.04649633
99	0x3e8be956	0.2732646
100	0x3e49db06	0.19712457
101	0xbe409c63	-0.18809657
102	0xbd9d907f	-0.07693576
103	0x3e67a5a3	0.22621779
104	0x3dc87625	0.09788159
105	0x3e104a03	0.14090733
106	0x3e0bcab3	0.13651542
107	0xbdbb3600	-0.09141159
108	0x3e34d111	0.17657878
109	0x3e97b5a9	0.29630783
110	0x3e055dc2	0.13024047
111	0xbdc1bb1b	-0.09459516
112	0x3d5febd4	0.054668263
113	0x3e23e49f	0.16005181
114	0xbe627a69	-0.22117008
115	0x3d83dfb2	0.06439151
116	0xbda0d218	-0.07852572
117	0x3c3a5fd2	0.011375384
118	0xbd7c184d	-0.061546613
119	0xbd08bd48	-0.033383638
120	0xbc8b0cb0	-0.016973823
121	0xbe11d56c	-0.1424157
122	0xbe47c234	-0.19507676
123	0x3d48b505	0.04900076
124	0xbd64a384	-0.055820003
125	0x3e062746	0.13100919
126	0xbd532cb7	-0.051556315
127	0x3e4da005	0.20080574
128	0x3caff91a	0.021481086
129	0xbe1a94fa	-0.15095893
130	0xbcb89c5d	-0.022535497
131	0xbdca214e	-0.098696336
132	0x3c9cc06e	0.019134726
133	0x3cdad7d4	0.026714243
134	0xbe0167c8	-0.12637246
135	0x3d5230e6	0.051316164
136	0x3dbc16bf	0.09184026
137	0xbdda3cec	-0.10656151
138	0xbbcba163	-0.006214307
139	0x3d8e10e9	0.06936819
140	0xbe071c9f	-0.13194512
141	0x3e22f426	0.15913448
142	0xbe1b2b39	-0.15153207
143	0xbdbaead9	-0.09126825
144	0x3d3d0ea0	0.046156526
145	0xbd0d8740	-0.034552813
146	0xbeb94cd5	-0.3619143
147	0xbe8d4ebc	-0.27599132
148	0x3b9a8301	0.004715324
149	0xbe14e4d3	-0.14540415
150	0xbd414abd	-0.047190417
151	0x3e77332b	0.24140613
152	0xbdfdea99	-0.123982616
153	0x3d819a8d	0.06328306
154	0xbea1623e	-0.31520265
155	0xbe2c4480	-0.16823006
156	0x3e783702	0.24239734
157	0x3e57f58b	0.21089761
158	0xbd031510	-0.03200251
159	0xbdf8edb2	-0.12154712
160	0xbe7f5f39	-0.24938668
161	0x3e347aea	0.17625013
162	0xbe538e2c	-0.20659703
163	0xbcf051b0	-0.029335827
164	0xbe856096	-0.26050252
165	0xbd920ccc	-0.07131347
166	0xbc0a7b07	-0.008452184
167	0xbd1838c4	-0.03716351
168	0xbd860b0b	-0.06545075
169	0xbdd97d03	-0.10619547
170	0x3e0ad8fc	0.13559335
171	0x3d4ba3b0	0.04971665
172	0x3e9de138	0.3083589
173	0xbaa977a0	-0.0012929328
174	0xbea5a2aa	-0.32350665
175	0xbd66fc8c	-0.05639319
176	0x3e6c5d5c	0.23082489
177	0xbdf4dd40	-0.119562626
178	0x3d0d26b0	0.034460723
179	0x3d09a264	0.033602133
180	0xbe647622	-0.22310689
181	0x3e739e4c	0.23790854
182	0xbd0e3366	-0.034716986
183	0xbe9f2ddc	-0.31089675
184	0xbe670a67	-0.22562562
185	0xbe4cb64a	-0.19991413
186	0xbeb0d975	-0.34540907
187	0x3e7f6bde	0.24943492
188	0x3e8cdcc9	0.27512196
189	0xbe838f73	-0.2569538
190	0xbe488bbd	-0.19584556
191	0x3e5c7bdf	0.21531628
192	0xbe1a64ce	-0.15077516
193	0x3edd0462	0.43167406
194	0xbe3fd651	-0.18734099
195	0xbe152cdd	-0.14567895
196	0xbe9b0d76	-0.30283707
197	0xbe31a210	-0.17346978
198	0x3e7d315f	0.24725865
199	0xbdbb2f62	-0.09139897
200	0xbeabbb66	-0.3354141
201	0x3e81a2b9	0.2531946
202	0xbe52c84f	-0.20584224
203	0x3e0bb26c	0.13642281
204	0x3ec39b7d	0.38204566
205	0x3e5844a1	0.2111993
206	0x3e997af9	0.29976633
207	0xbe8bce48	-0.27305818
208	0xbeace3c0	-0.3376751
209	0xbebe4704	-0.37163556
210	0x3e9a3dff	0.30125424
211	0xbd756453	-0.05991013
212	0x3e342d1c	0.17595333
213	0xbe95c824	-0.29254258
214	0x3d3c249d	0.045933355
215	0x3eb76303	0.35817727
216	0x3d5e0813	0.05420692
217	0x3ebea47d	0.3723487
218	0xbe83236c	-0.25612962
219	0x3d779bb7	0.060451236
220	0xbd7ac8b9	-0.06122658
221	0xbeaa444d	-0.33255234
222	0xbe595b26	-0.21226177
223	0xbb871e95	-0.0041235187
224	0xbe9f412d	-0.31104413
225	0x3e8389c1	0.25691035
226	0xbe81b56c	-0.25333726
227	0xbd1c5ae1	-0.038172606
228	0xbcdd7fed	-0.027038539
229	0xbe8cf00c	-0.2752689
230	0xbe1b9857	-0.15194832
231	0x3dba6d1c	0.09102842
232	0xbe17ee82	-0.14837077
233	0x3e53faaf	0.20701097
234	0x3db6d20c	0.08926782
235	0x3de09182	0.109652534
236	0x3e312e91	0.1730292
237	0x3d22471e	0.039618604
238	0xbe99da93	-0.3004957
239	0x3e0ef575	0.13960822
240	0xbe21eab6	-0.15812191
241	0x3dec7cc1	0.115472324
242	0x3e28c371	0.16480805
243	0x3e0a644a	0.1351482
244	0x3e9ff261	0.31239608
245	0x3e911e34	0.28343356
246	0xbe6cc0ea	-0.23120466
247	0xbe60c42a	-0.2194983
248	0x3e57ef6d	0.21087427
249	0x3c9f8106	0.019470703
250	0x3df48145	0.11938719
251	0xbea3a2ca	-0.31960136
252	0xbe05ee1f	-0.13079117
253	0x3c6526b3	0.013986277
254	0x3e965944	0.2936498
255	0xbe888abc	-0.26668346

hyper_net2.net.4.bias f4 [16]
0	0xbdfb74af	-0.12278115
1	0x3e1f25cb	0.1554176
2	0x3d9762ae	0.073918685
3	0x3d33abd8	0.043865055
4	0xbe31be36	-0.17357716
5	0xbe3ef4de	-0.18648097
6	0x3d0fda1b	0.03512011
7	0xbe001697	-0.12508617
8	0x3df6abd3	0.120444916
9	0x3e178d78	0.1480006
10	0xbddf9b44	-0.109182864
11	0xbe0bda73	-0.1365755
12	0x3e783875	0.24240287
13	0xbdf1b5ba	-0.1180224
14	0xbe4ccde8	-0.20000422
15	0xbe263874	-0.16232473

hyper_net2.net.6.weight f4 [1, 16]
0	0x3e270ef5	0.163143
1	0x3d167175	0.036729295
2	0xbe4e9ef3	-0.20177822
3	0x3e6ca9e6	0.23111686
4	0x3ee48076	0.44629258
5	0x3ee36c48	0.4441855
6	0xbd958a6e	-0.07301794
7	0xbd0e6c78	-0.034771413
8	0xbd3acda2	-0.045606263
9	0x3ea34408	0.3188784
10	0xbe84bf12	-0.25927025
11	0x3dbec30f	0.09314548
12	0x3e98f27c	0.298725
13	0x3e977735	0.29583135
14	0xbe3d09ac	-0.18460721
15	0x3ea1a483	0.31570825

exp_avg f4 [16, 8]
0	0x3b6145be	0.0034373845
1	0xbb60717a	-0.0034247325
2	0xbb26ee36	-0.0025471575
3	0x3a3cc10a	0.0007200396
4	0x39eef6a8	0.0004557867
5	0xb9035869	-0.00012526069
6	0xb9cf387b	-0.00039524198
7	0x3b654894	0.0034985887
8	0xbaf8b1e0	-0.0018973909
9	0x3b9e7f35	0.0048369416
10	0x3909bfd9	0.00013136807
11	0x3b295a65	0.0025841233
12	0x38dc2a79	0.000104983286
13	0x37de4238	2.6495298e-05
14	0x3b049fd1	0.002023686
15	0x3909210c	0.00013077649
16	0x3b4a7f18	0.0030898508
17	0x3aa7f727	0.0012814746
18	0xbb42f540	-0.0029748231
19	0x3b28358f	0.002566669
20	0xbadd6a4c	-0.0016892641
21	0x3a66211d	0.0008778738
22	0xb906060a	-0.00012781486
23	0x3ac7d9e8	0.0015247436
24	0xb90b0c92	-0.00013260756
25	0x3a8b59fa	0.0010631674
26	0xba600bbe	-0.00085466716
27	0x3ac0f2dc	0.0014720815
28	0x39e0eaab	0.0004289945
29	0xbb261cc2	-0.002534673
30	0x3b3809fd	0.0028082125
31	0xbb6d390e	-0.0036197337
32	0xbacb73e4	-0.0015522209
33	0x3ad438c5	0.0016191235
34	0x3b5afe66	0.0033415793
35	0x39e95990	0.00044507952
36	0xba528e8b	-0.0008032105
37	0xb690856f	-4.307068e-06
38	0xba659a3f	-0.0008758641
39	0x3af0d180	0.0018372983
40	0xb9727708	-0.00023123261
41	0x3942039d	0.00018502628
42	0xbb7da985	-0.0038705778
43	0x3acc92ff	0.0015607773
44	0x3b1dcec0	0.0024079531
45	0xbab7cd3e	-0.0014022959
46	0x39df156a	0.0004254983
47	0xbb02d009	-0.0019960424
48	0xbab2f941	-0.0013654606
49	0x3b852057	0.004062693
50	0xbb80d7f1	-0.003931992
51	0xba780433	-0.0009461075
52	0x39a52a6f	0.00031502868
53	0x3a2c93bf	0.0006583295
54	0xba0a8ee2	-0.00052855734
55	0xbb242d9c	-0.00250516
56	0x3aa20d06	0.00123635
57	0xbb983b74	-0.0046457592
58	0x39cae305	0.00038697585
59	0xbb1922fe	-0.0023366804
60	0xb903ddc7	-0.00012575752
61	0x3b0ee738	0.0021805298
62	0xbac74885	-0.0015204108
63	0xbb1ecf2c	-0.002423237
64	0xbb8b5d89	-0.0042530936
65	0x3ad68ba4	0.001636852
66	0x3b53eb95	0.0032336463
67	0xbb69baf7	-0.0035664418
68	0x3a8a39b0	0.0010545757
69	0x3a83ea07	0.0010064252
70	0xbb2ae868	-0.0026078466
71	0x3a2c2c53	0.0006567884
72	0x3b046bab	0.0020205777
73	0xba4ace48	-0.0007736427
74	0x3b5a6f89	0.003333064
75	0xba33dcf5	-0.0006861233
76	0xb8206050	-3.823667e-05
77	0x3a795683	0.00095114874
78	0xbb25c71c	-0.002529568
79	0xbb89e584	-0.0042082686
80	0x3ab20ae5	0.0013583569
81	0x3aca9e32	0.0015458523
82	0x3a233b71	0.0006226814
83	0xbafd4c3b	-0.0019325087
84	0x3b136bdb	0.0022494707
85	0xba5cfc1d	-0.0008429902
86	0xba201afe	-0.0006107538
87	0xbb5b88b8	-0.0033498239
88	0xbb7a9e55	-0.0038241346
89	0x3b3e312a	0.0029021003
90	0xba9d05d8	-0.0011979891
91	0x3b62cd09	0.0034607074
92	0x3b434fa9	0.002980212
93	0x3a0efb3f	0.00054543087
94	0x3b1eb59b	0.0024217132
95	0xbb0e92f0	-0.0021755062
96	0x3b1b46dc	0.0023693359
97	0x3b5a1968	0.0033279303
98	0xbac2b0ca	-0.0014853713
99	0xb997aeca	-0.00028931192
100	0xba4e12cf	-0.0007861079
101	0xb90552ac	-0.00012714666
102	0xbb1843e9	-0.0023233837
103	0xbb037224	-0.0020057047
104	0xbb3d9837	-0.0028929838
105	0x397b3a47	0.00023958935
106	0x38b70bca	8.728316e-05
107	0xbb14abbb	-0.0022685367
108	0xb9553251	-0.00020332007
109	0x3a598089	0.00082970463
110	0xb8e6e45d	-0.000110097906
111	0x3aa3be47	0.001249262
112	0xbaedd493	-0.0018145017
113	0xba5127aa	-0.00079786277
114	0xbb89e76d	-0.0042084963
115	0x3b91aed0	0.004445888
116	0x383d9fec	4.521005e-05
117	0x3a4dc6b5	0.0007849739
118	0x3a8916c9	0.0010459061
119	0x3ba09f92	0.0049018348
120	0xbb5f8d2f	-0.0034111252
121	0x3a595b40	0.00082914904
122	0xbb898d74	-0.0041977707
123	0x3ae2fffd	0.0017318722
124	0xba4f28d1	-0.00079025055
125	0x39a6d8bd	0.0003182347
126	0xbacac0d7	-0.0015468848
127	0x3af2d26a	0.0018525843
